…
swapping of modules with same name. You must explicitly unload the loaded
version of "torchvision" before you can load the new one. Use swap (or an
unload followed by a load) to do this:

   $ module swap torchvision  torchvision

Alternatively, you can set the environment variable
LMOD_DISABLE_SAME_NAME_AUTOSWAP to "no" to re-enable same name autoswapping. 
Namespace(batchSize=64, beta1=0.5, cuda=False, dataroot='../mnist_data/', dataset='mnist', imageSize=64, lr=0.0002, manualSeed=None, ndf=64, netD='', netG='', ngf=64, ngpu=1, niter=5, nz=100, outf='output/', workers=2)
Random Seed:  2462
_netG (
  (main): Sequential (
    (0): ConvTranspose2d(100, 512, kernel_size=(4, 4), stride=(1, 1), bias=False)
    (1): BatchNorm2d(512, eps=1e-05, momentum=0.1, affine=True)
    (2): ReLU (inplace)
    (3): ConvTranspose2d(512, 256, kernel_size=(4, 4), stride=(2, 2), padding=(1, 1), bias=False)
    (4): BatchNorm2d(256, eps=1e-05, momentum=0.1, affine=True)
    (5): ReLU (inplace)
    (6): ConvTranspose2d(256, 128, kernel_size=(4, 4), stride=(2, 2), padding=(1, 1), bias=False)
    (7): BatchNorm2d(128, eps=1e-05, momentum=0.1, affine=True)
    (8): ReLU (inplace)
    (9): ConvTranspose2d(128, 64, kernel_size=(4, 4), stride=(2, 2), padding=(1, 1), bias=False)
    (10): BatchNorm2d(64, eps=1e-05, momentum=0.1, affine=True)
    (11): ReLU (inplace)
    (12): ConvTranspose2d(64, 1, kernel_size=(4, 4), stride=(2, 2), padding=(1, 1), bias=False)
    (13): Tanh ()
  )
)
_netD (
  (main): Sequential (
    (0): Conv2d(1, 64, kernel_size=(4, 4), stride=(2, 2), padding=(1, 1), bias=False)
    (1): LeakyReLU (0.2, inplace)
    (2): Conv2d(64, 128, kernel_size=(4, 4), stride=(2, 2), padding=(1, 1), bias=False)
    (3): BatchNorm2d(128, eps=1e-05, momentum=0.1, affine=True)
    (4): LeakyReLU (0.2, inplace)
    (5): Conv2d(128, 256, kernel_size=(4, 4), stride=(2, 2), padding=(1, 1), bias=False)
    (6): BatchNorm2d(256, eps=1e-05, momentum=0.1, affine=True)
    (7): LeakyReLU (0.2, inplace)
    (8): Conv2d(256, 512, kernel_size=(4, 4), stride=(2, 2), padding=(1, 1), bias=False)
    (9): BatchNorm2d(512, eps=1e-05, momentum=0.1, affine=True)
    (10): LeakyReLU (0.2, inplace)
    (11): Conv2d(512, 1, kernel_size=(4, 4), stride=(1, 1), bias=False)
    (12): Sigmoid ()
  )
)
[0/5][0/938] Loss_D: 1.2802 Loss_G: 4.3911 D(x): 0.5262 D(G(z)): 0.3876 / 0.0160
[0/5][1/938] Loss_D: 1.4259 Loss_G: 6.0686 D(x): 0.9979 D(G(z)): 0.6837 / 0.0040
[0/5][2/938] Loss_D: 0.5987 Loss_G: 7.0560 D(x): 0.9928 D(G(z)): 0.4025 / 0.0012
[0/5][3/938] Loss_D: 0.2955 Loss_G: 7.0922 D(x): 0.9480 D(G(z)): 0.1858 / 0.0013
…
